…
------------------------


189 Project: Achieve high accuracy on image classification
# FC7
model.add(Flatten())    
model.add(Dense(10, activation= 'softmax' ))    
model.summary()    
The model summary is shown in figure 4.31.Flattens the feature map into a 1D 
features vector (explained in chapter 3)
10 hidden units because the 
dataset has 10 class labels. Softmax 
activation function is used for the 
output layer (explained in chapter 2).Prints the model 
summary
Layer (type)
conv2d_1 (Conv2D)
activation_1 (Activation)Output Shape
(None, 32, 32, 32)
(None, 32, 32, 32)Param #
896
conv2d_3 (Conv2D) (None, 16, 16, 64) 18496conv2d_2 (Conv2D) (None, 32, 32, 32) 92480
activation_2 (Activation) (None, 32, 32, 32) 0
activation_4 (Activation) (None, 16, 16, 64) 0activation_3 (Activation) (None, 16, 16, 64) 0batch_normalization_1 (batch (None, 32, 32, 32) 128
batch_normalization_2 (batch (None, 32, 32, 32) 128
batch_normalization_3 (batch (None, 16, 16, 64) 256
batch_normalization_4 (batch (None, 16, 16, 64) 256
batch_normalization_5 (batch (None, 8, 8, 128) 512
batch_normalization_6 (batch (None, 8, 8, 128) 512max_pooling2d_1 (MaxPooling2 (None, 16, 16, 32) 0
max_pooling2d_2 (MaxPooling2 (None, 8, 8, 64) 0
max_pooling2d_3 (MaxPooling2 (None, 4, 4, 128) 0dropout_1 (Dropout)
conv2d_4 (Conv2D) (None, 16, 16, 64) 36928
conv2d_5 (Conv2D) (None, 8, 8, 128) 73856
conv2d_6 (Conv2D) (None, 8, 8, 128) 147584(None, 16, 16, 32) 0
dropout_2 (Dropout) (None, 8, 8, 64) 0
dropout_3 (Dropout) (None, 4, 4, 128) 0
ﬂatten_1 (Flatten) (None, 2048 0
dense_1 (Dense) (None, 10) 20490activation_5 (Activation) (None, 8, 8, 128) 0
activation_6 (Activation) (None, 8, 8, 128) 0
Figure 4.31
Model summary


------------------------


190 CHAPTER  4Structuring DL projects and hyperparameter tuning
STEP 4: T RAIN THE MODEL  
Before we jump into the training code, let’s discuss the strategy behind some of the
hyperparameter settings: 
batch_size —This is the mini-batch hyperparameter that we covered in this
chapter. The higher the batch_size , the faster your algorithm learns. You can
…
    elif epoch > 5 and epoch <= 9:
        lr = 5e-5
    else: 
        lr = 1e-5
    return lr
We use the lr_schedule  function in the following code snippet to compile the model:
from keras.callbacks import ModelCheckpoint, LearningRateScheduler
lr_scheduler = LearningRateScheduler(lr_schedule)
checkpoint = ModelCheckpoint(filepath='path_to_save_file/file.hdf5',
                             monitor='val_acc',Layer (type)
Total params: 61,706
Trainable params: 61,706
Non-trainable params: 0conv2d_1 (Conv2D)
average_pooling2d_1 (AverageOutput Shape
(None, 28, 28, 6)
(None, 14, 14, 6)Param #
156
0
conv2d_2 (Conv2D) (None, 10, 10, 16) 2416
average_pooling2d_2 (Average (None, 5, 5, 16) 0
conv2d_3 (Conv2D) (None, 1, 1, 120) 48120
ﬂatten_1 (Flatten) (None, 120) 0
dense_1 (Dense) (None, 84) 10164
dense_2 (Dense) (None, 10) 850
Figure 5.5 LeNet-5 model summary
lr is 0.0005 for the first two 
epochs, 0.0002 for the next three 
epochs (3 to 5), 0.00005 for the 
next four (6 to 9), then 0.0000 1 
thereafter (more than 9).


------------------------


203 AlexNet
                             verbose=1,
                             save_best_only=True)
callbacks = [checkpoint, lr_reducer]
model.compile(loss= 'categorical_crossentropy' , optimizer='sgd',
…
2When you print a summary of the base model, you will notice that we down-
loaded the exact VGG16 architecture that we implemented in chapter 5. This is
a fast approach to download popular networks that are supported by the DL
library you are using. Alternatively, you can build the network yourself, as we
did in chapter 5, and download the weights separately. I’ll show you how in the
project at the end of this chapter. But for now, let’s look at the base_model  sum-
mary that we just downloaded:
Layer (type)                 Output Shape              Param #   
=================================================================
input_1 (InputLayer)         (None, 224, 224, 3)       0         
_________________________________________________________________
block1_conv1 (Conv2D)        (None, 224, 224, 64)      1792      
_________________________________________________________________
block1_conv2 (Conv2D)        (None, 224, 224, 64)      36928     
_________________________________________________________________
block1_pool (MaxPooling2D)   (None, 112, 112, 64)      0         
_________________________________________________________________
block2_conv1 (Conv2D)        (None, 112, 112, 128)     73856     
_________________________________________________________________
block2_conv2 (Conv2D)        (None, 112, 112, 128)     147584    
_________________________________________________________________
block2_pool (MaxPooling2D)   (None, 56, 56, 128)       0         
_________________________________________________________________
block3_conv1 (Conv2D)        (None, 56, 56, 256)       295168    
_________________________________________________________________
block3_conv2 (Conv2D)        (None, 56, 56, 256)       590080    
_________________________________________________________________
block3_conv3 (Conv2D)        (None, 56, 56, 256)       590080    
_________________________________________________________________
block3_pool (MaxPooling2D)   (None, 28, 28, 256)       0         
_________________________________________________________________
block4_conv1 (Conv2D)        (None, 28, 28, 512)       1180160   
_________________________________________________________________
block4_conv2 (Conv2D)        (None, 28, 28, 512)       2359808   
_________________________________________________________________
block4_conv3 (Conv2D)        (None, 28, 28, 512)       2359808   
_________________________________________________________________Imports the VGG 16 
model from Keras
Downloads the model’s pretrained weights and saves them in the variable base_model.
We specify that Keras should download the ImageNet weights. include_top is false to
ignore the fully connected classifier part on top of the model.


------------------------


247 What is transfer learning?
block4_pool (MaxPooling2D)   (None, 14, 14, 512)       0         
_________________________________________________________________
block5_conv1 (Conv2D)        (None, 14, 14, 512)       2359808   
_________________________________________________________________
block5_conv2 (Conv2D)        (None, 14, 14, 512)       2359808   
_________________________________________________________________
block5_conv3 (Conv2D)        (None, 14, 14, 512)       2359808   
_________________________________________________________________
block5_pool (MaxPooling2D)   (None, 7, 7, 512)         0         
=================================================================
Total params: 14,714,688
Trainable params: 14,714,688
Non-trainable params: 0
_________________________________________________________________
Notice that this downloaded architecture does not contain the classifier part
(three fully connected layers) at the top of the network because we set the
include_top  argument to False . More importantly, notice the number of train-
…
output of the last softmax layer as an output. The new model is composed of all
the feature extraction layers in VGGNet with the pretrained weights, plus our
new, untrained , softmax layer. In other words, when we train the model, we are
only going to train the softmax layer in this example to detect the specific fea-
tures of our new problem (German Shepherd, Beagle, Neither): 
new_model = Model(inputs=base_model.input, outputs=x)     
new_model.summary()     
_________________________________________________________________
Layer (type)                 Output Shape              Param #   
===================================================
input_1 (InputLayer)         (None, 224, 224, 3)       0         
_________________________________________________________________
block1_conv1 (Conv2D)        (None, 224, 224, 64)      1792      
_________________________________________________________________
block1_conv2 (Conv2D)        (None, 224, 224, 64)      36928     
_________________________________________________________________
block1_pool (MaxPooling2D)   (None, 112, 112, 64)      0         
_________________________________________________________________
block2_conv1 (Conv2D)        (None, 112, 112, 128)     73856     
_________________________________________________________________
block2_conv2 (Conv2D)        (None, 112, 112, 128)     147584    
_________________________________________________________________
block2_pool (MaxPooling2D)   (None, 56, 56, 128)       0         
_________________________________________________________________Flattens the classifier input, which is the 
output of the last layer of the VGG 16 modelAdds our new softmax layer
with two hidden units
Remove the
classiﬁer.
Add a softmax layer
with 2 units.Pool/2
FC 4096
Softmax 1000
Softmax 2+FC 4096
Figure 6.3 Remove the classifier part of 
the network, and add a softmax layer with 
two hidden nodes.
Instantiates a new_model using
Keras’s Model class
Prints the new_model summary


------------------------


249 What is transfer learning?
block3_conv1 (Conv2D)        (None, 56, 56, 256)       295168    
_________________________________________________________________
block3_conv2 (Conv2D)        (None, 56, 56, 256)       590080    
_________________________________________________________________
block3_conv3 (Conv2D)        (None, 56, 56, 256)       590080    
_________________________________________________________________
block3_pool (MaxPooling2D)   (None, 28, 28, 256)       0         
_________________________________________________________________
block4_conv1 (Conv2D)        (None, 28, 28, 512)       1180160   
_________________________________________________________________
block4_conv2 (Conv2D)        (None, 28, 28, 512)       2359808   
_________________________________________________________________
block4_conv3 (Conv2D)        (None, 28, 28, 512)       2359808   
_________________________________________________________________
block4_pool (MaxPooling2D)   (None, 14, 14, 512)       0         
_________________________________________________________________
block5_conv1 (Conv2D)        (None, 14, 14, 512)       2359808   
_________________________________________________________________
block5_conv2 (Conv2D)        (None, 14, 14, 512)       2359808   
_________________________________________________________________
block5_conv3 (Conv2D)        (None, 14, 14, 512)       2359808   
_________________________________________________________________
block5_pool (MaxPooling2D)   (None, 7, 7, 512)         0         
_________________________________________________________________
flatten_layer (Flatten)      (None, 25088)             0         
_________________________________________________________________
softmax (Dense)              (None, 2)                 50178     
===================================================
Total params: 14,789,955
Trainable params: 50,178
Non-trainable params: 14,714,688
_________________________________________________________________
Training the new model is a lot faster than training the network from scratch. To ver-
ify that, look at the number of trainable params in this model (~50,000) compared
to the number of non-trainable params in the network (~14 million). These “non-
…
last_output = last_layer.output
x = Flatten()(last_output)     
x = Dense(64, activation= 'relu', name='FC_2')(x)        
x = BatchNormalization()(x)                             
x = Dropout(0.5)(x)                                     
x = Dense(2, activation= 'softmax' , name='softmax' )(x)   
new_model = Model(inputs=base_model.input, outputs=x)   
new_model.summary()
_________________________________________________________________
Layer (type)                 Output Shape              Param #   
=================================================================
input_1 (InputLayer)         (None, 224, 224, 3)       0         
_________________________________________________________________
block1_conv1 (Conv2D)        (None, 224, 224, 64)      1792      
_________________________________________________________________
block1_conv2 (Conv2D)        (None, 224, 224, 64)      36928     
_________________________________________________________________
block1_pool (MaxPooling2D)   (None, 112, 112, 64)      0         
_________________________________________________________________
block2_conv1 (Conv2D)        (None, 112, 112, 128)     73856     
_________________________________________________________________
block2_conv2 (Conv2D)        (None, 112, 112, 128)     147584    
_________________________________________________________________
block2_pool (MaxPooling2D)   (None, 56, 56, 128)       0         
_________________________________________________________________
block3_conv1 (Conv2D)        (None, 56, 56, 256)       295168    
_________________________________________________________________
block3_conv2 (Conv2D)        (None, 56, 56, 256)       590080    
_________________________________________________________________
block3_conv3 (Conv2D)        (None, 56, 56, 256)       590080    
_________________________________________________________________
block3_pool (MaxPooling2D)   (None, 28, 28, 256)       0         
_________________________________________________________________Iterates through layers and locks them to 
make them non-trainable with this code
Uses the get_layer method to save the last
layer of the network. Then saves the output of
the last layer to be the input of the next layer.
Flattens the classifier input, which is output 
of the last layer of the VGG 16 model
Adds one fully 
connected layer 
that has 64 units 
and batchnorm, 
dropout, and 
softmax layersInstantiates
a new_model
using Keras’s
Model class


------------------------


272 CHAPTER  6Transfer learning
block4_conv1 (Conv2D)        (None, 28, 28, 512)       1180160   
_________________________________________________________________
block4_conv2 (Conv2D)        (None, 28, 28, 512)       2359808   
_________________________________________________________________
block4_conv3 (Conv2D)        (None, 28, 28, 512)       2359808   
_________________________________________________________________
block4_pool (MaxPooling2D)   (None, 14, 14, 512)       0         
_________________________________________________________________
block5_conv1 (Conv2D)        (None, 14, 14, 512)       2359808   
_________________________________________________________________
block5_conv2 (Conv2D)        (None, 14, 14, 512)       2359808   
_________________________________________________________________
block5_conv3 (Conv2D)        (None, 14, 14, 512)       2359808   
_________________________________________________________________
block5_pool (MaxPooling2D)   (None, 7, 7, 512)         0         
_________________________________________________________________
flatten_1 (Flatten)          (None, 25088)             0         
_________________________________________________________________
FC_2 (Dense)                 (None, 64)                1605696   
_________________________________________________________________
batch_normalization_1 (Batch (None, 64)                256       
_________________________________________________________________
dropout_1 (Dropout)          (None, 64)                0         
_________________________________________________________________
softmax (Dense)              (None, 2)                 130       
=================================================================
Total params: 16,320,770
Trainable params: 1,605,954
Non-trainable params: 14,714,816
_________________________________________________________________
6Compile the model and run the training process: 
new_model.compile(Adam(lr=0.0001), loss= 'categorical_crossentropy' , 
                  metrics=[ 'accuracy' ])
new_model.fit_generator(train_batches, steps_per_epoch=4,
…
start with fine-tuning only the last five layers; if we don’t get satisfying results,
we can fine-tune more. It turns out that after we trained the new model, we
got 98% accuracy, so this was a good level of fine-tuning. But in other cases, if
you find that your network doesn’t converge, try fine-tuning more layers.
for layer in base_model.layers[:-5]:    
    layer.trainable = False
base_model.summary()
_________________________________________________________________
Layer (type)                 Output Shape              Param #   
=================================================================
input_1 (InputLayer)         (None, 224, 224, 3)       0         
_________________________________________________________________
block1_conv1 (Conv2D)        (None, 224, 224, 64)      1792      
_________________________________________________________________
block1_conv2 (Conv2D)        (None, 224, 224, 64)      36928     
_________________________________________________________________
block1_pool (MaxPooling2D)   (None, 112, 112, 64)      0         
_________________________________________________________________
block2_conv1 (Conv2D)        (None, 112, 112, 128)     73856     
_________________________________________________________________
block2_conv2 (Conv2D)        (None, 112, 112, 128)     147584    
_________________________________________________________________
block2_pool (MaxPooling2D)   (None, 56, 56, 128)       0         
_________________________________________________________________
block3_conv1 (Conv2D)        (None, 56, 56, 256)       295168    
_________________________________________________________________
block3_conv2 (Conv2D)        (None, 56, 56, 256)       590080    
_________________________________________________________________
block3_conv3 (Conv2D)        (None, 56, 56, 256)       590080    
_________________________________________________________________
block3_pool (MaxPooling2D)   (None, 28, 28, 256)       0         
_________________________________________________________________
block4_conv1 (Conv2D)        (None, 28, 28, 512)       1180160   
_________________________________________________________________
block4_conv2 (Conv2D)        (None, 28, 28, 512)       2359808   
_________________________________________________________________
block4_conv3 (Conv2D)        (None, 28, 28, 512)       2359808   
_________________________________________________________________
block4_pool (MaxPooling2D)   (None, 14, 14, 512)       0         
_________________________________________________________________
block5_conv1 (Conv2D)        (None, 14, 14, 512)       2359808   
_________________________________________________________________
block5_conv2 (Conv2D)        (None, 14, 14, 512)       2359808   
_________________________________________________________________
block5_conv3 (Conv2D)        (None, 14, 14, 512)       2359808   
_________________________________________________________________
block5_pool (MaxPooling2D)   (None, 7, 7, 512)         0         
_________________________________________________________________
global_average_pooling2d_1 ( (None, 512)               0         
=================================================================Iterates through layers 
and locks them, except 
for the last five layers


------------------------


278 CHAPTER  6Transfer learning
Total params: 14,714,688
Trainable params: 7,079,424
Non-trainable params: 7,635,264
_________________________________________________________________
5Add the new classifier layers, and build the new model:
last_output = base_model.output      
x = Dense(10, activation= 'softmax' , name='softmax' )(last_output)    
new_model = Model(inputs=base_model.input, outputs=x)    
new_model.summary()    
Layer (type)                 Output Shape              Param #   
=================================================================
input_1 (InputLayer)         (None, 224, 224, 3)       0         
_________________________________________________________________
block1_conv1 (Conv2D)        (None, 224, 224, 64)      1792      
_________________________________________________________________
block1_conv2 (Conv2D)        (None, 224, 224, 64)      36928     
_________________________________________________________________
block1_pool (MaxPooling2D)   (None, 112, 112, 64)      0         
_________________________________________________________________
block2_conv1 (Conv2D)        (None, 112, 112, 128)     73856     
_________________________________________________________________
block2_conv2 (Conv2D)        (None, 112, 112, 128)     147584    
_________________________________________________________________
block2_pool (MaxPooling2D)   (None, 56, 56, 128)       0         
_________________________________________________________________
block3_conv1 (Conv2D)        (None, 56, 56, 256)       295168    
_________________________________________________________________
block3_conv2 (Conv2D)        (None, 56, 56, 256)       590080    
_________________________________________________________________
block3_conv3 (Conv2D)        (None, 56, 56, 256)       590080    
_________________________________________________________________
block3_pool (MaxPooling2D)   (None, 28, 28, 256)       0         
_________________________________________________________________
block4_conv1 (Conv2D)        (None, 28, 28, 512)       1180160   
_________________________________________________________________
block4_conv2 (Conv2D)        (None, 28, 28, 512)       2359808   
_________________________________________________________________
block4_conv3 (Conv2D)        (None, 28, 28, 512)       2359808   
_________________________________________________________________
block4_pool (MaxPooling2D)   (None, 14, 14, 512)       0         
_________________________________________________________________
block5_conv1 (Conv2D)        (None, 14, 14, 512)       2359808   
_________________________________________________________________
block5_conv2 (Conv2D)        (None, 14, 14, 512)       2359808   
_________________________________________________________________Saves the output of base_model 
to be the input of the next layerAdds our new softmax layer 
with 10 hidden units
Instantiates
a new_model
using Keras’s
Model classPrints the new_model summary


------------------------


279 Project 2: Fine-tuning
block5_conv3 (Conv2D)        (None, 14, 14, 512)       2359808   
_________________________________________________________________
block5_pool (MaxPooling2D)   (None, 7, 7, 512)         0         
_________________________________________________________________
global_average_pooling2d_1 ( (None, 512)               0         
_________________________________________________________________
softmax (Dense)              (None, 10)                5130      
=================================================================
Total params: 14,719,818
Trainable params: 7,084,554
Non-trainable params: 7,635,264
6Compile the network, and run the training process to optimize the model for
the smaller dataset:
new_model.compile(Adam(lr=0.0001), loss= 'categorical_crossentropy' , 
                  metrics=[ 'accuracy' ])
from keras.callbacks  import ModelCheckpoint
…
tern of the traditional CNN networks that we learned about in chapters 3, 4, and 5. We
stack convolutional, batch normalization, activation, and dropout layers to create our
model. All of these layers have hyperparameters that we tune when we are training the
network. For your own implementation, you can tune these hyperparameters and add
or remove layers as you see fit. Tuning CNN hyperparameters is explained in detail in
chapters 3 and 4.
Layer (type)
Total params: 393,729
Trainable params: 392,833
Non-trainable params: 896conv2d_1 (Conv2D)
leaky_re_lu_1 (LeakyReLU)Output Shape
(None, 14, 14, 32)
(None, 14, 14, 32)Param #
320
0
dropout_1 (Dropout) (None, 14, 14, 32) 0
conv2d_2 (Conv2D) (None, 7, 7, 64) 18496
conv2d_3 (Conv2D) (None, 4, 4, 128) 73856zero_padding2d_1 (ZeroPaddin (None, 8, 8, 64) 0
batch_normalization_1 (Batch (None, 8, 8, 64) 250
leaky_re_lu_2 (LeakyReLU) (None, 8, 8, 64) 0
dropout_2 (Dropout) (None, 8, 8, 64) 0
ﬂatten_1 (Flatten) (None, 4096 0
dense_1 (Dense) (None, 1) 4097batch_normalization_3 (Batch (None, 4, 4, 256) 1024
leaky_re_lu_4 (LeakyReLU) (None, 4, 4, 256) 0
dropout_4 (Dropout) (None, 4, 4, 256) 0conv2d_4 (Conv2D) (None, 4, 4, 256) 295168batch_normalization_2 (Batch (None, 4, 4, 128) 512
leaky_re_lu_3 (LeakyReLU) (None, 4, 4, 128) 0
dropout_3 (Dropout) (None, 4, 4, 128) 0
Figure 8.6 The output summary for the discriminator model 


------------------------


348 CHAPTER  8Generative adversarial networks (GANs)
In the output summary in figure 8.6, note that the width and height of the output fea-
ture maps decrease in size, whereas the depth increases in size. This is the expected
behavior for traditional CNN networks as we’ve seen in previous chapters. Let’s see
what happens to the feature maps’ size in the generator network in the next section. 
…
6,272 neurons. We reshaped it to a 7 × 7 × 128 volume, and then the width and height
were upsampled twice to 14 × 14 followed by 28 × 28. The depth decreased from 128 to
64 to 1 because this network is built to deal with the grayscale MNIST dataset project
that we will implement later in this chapter. If you are building a generator model to
generate color images, then you should set the filters in the last convolutional layer to 3. Layer (type)
Total params: 856,193
Trainable params: 855,809
Non-trainable params: 384dense_2 (Dense)
reshape_1 (Reshape)Output Shape
(None, 6272
(None, 7, 7, 128)Param #
633472
0
up_sampling2d_1 (UpSampling2 (None, 14, 14, 128) 0
conv2d_5 (Conv2D) (None, 14, 14, 128) 147584
batch_normalization_5 (Batch (None, 28, 28, 64) 256batch_normalization_4 (Batch (None, 14, 14, 128) 512
activation_1 (Activation) (None, 14, 14, 128) 0
up_sampling2d_2 (UpSampling2 (None, 28, 28, 128) 0
conv2d_6 (Conv2D) (None, 28, 28, 64) 73792
activation_2 (Activation) (None, 28, 28, 64) 0
conv2d_7 (Conv2D) (None, 28, 28, 1) 577
activation_3 (Activation) (None, 28, 28, 1) 0
Figure 8.10 The output summary of the generator model


------------------------


351 GAN architecture
8.1.4 Training the GAN
Now that we’ve learned the discriminator and generator models separately, let’s put
them together to train an end-to-end generative adversarial network. The discrimina-
tor is being trained to become a better classifier to maximize the probability of assign-
ing the correct label to both training examples (real) and images generated by the
…
